api/models/digit_cnn.tflite (tflite, 446632 bytes, 10 tensors)

model/batch_normalization/FusedBatchNormV3;model/conv2d/BiasAdd/ReadVariableOp;model/conv2d/BiasAdd f4 [32]
000000 0f 8c 42 3d 07 9d 3a bd 7c a2 f3 bc fc 70 a5 3c
       0.04749685 -0.04555991 -0.029740565 0.020195477
000010 d8 0d d1 bc 31 13 85 3d 49 98 88 bd 65 d6 da bd
       -0.025519297 0.06497801 -0.06669671 -0.10685424
000020 a2 7c 5e 3d a2 0f 94 bd 37 59 5b bd 72 fc 90 bd
       0.054318078 -0.07229544 -0.05355188 -0.070794
000030 f4 53 b6 bd 61 52 41 3c e8 db 3f bb 19 c1 78 bd
       -0.089027315 0.011799426 -0.0029275361 -0.060731027
000040 59 40 eb 3c 33 90 a3 bd 3a a2 1c 3d d8 a6 06 be
       0.028717207 -0.07986488 0.03824065 -0.13149583
000050 c4 d0 7e 3c 99 19 21 3d 79 1f 71 bd 82 c3 1d bd
       0.015552703 0.039331052 -0.058867905 -0.03851653
000060 a1 7d aa 3d 4b d2 0a 3d 5e 9a 5d bd d4 2f 78 3d
       0.08324743 0.033891957 -0.054102294 0.060592487
000070 29 6a 1f bd 7f 86 7f bd 49 f1 02 bc b6 8f 70 bd
       -0.0389196 -0.062384125 -0.007992097 -0.058730803

model/batch_normalization_1/FusedBatchNormV3;model/conv2d_1/BiasAdd/ReadVariableOp;model/conv2d_1/BiasAdd f4 [64]
000000 a4 2d 58 3e 32 6c 92 be c4 c1 bd 3d 29 49 5e be
       0.2111116 -0.2859817 0.092654735 -0.21707596
000010 f4 a8 4a 3e 1f 9b 51 3d 32 1a a8 3c 13 5e 2c 3e
       0.19791013 0.051173326 0.020520303 0.16832761
000020 d8 fe b8 be 4c 78 9d bd 83 56 46 ba 56 75 ba be
       -0.3613193 -0.076889604 -0.0007565992 -0.36417645
000030 66 66 cc be 14 9b 38 3d 71 2a f2 bc 69 1c 37 bd
       -0.39921874 0.04506977 -0.029561253 -0.04470483
000040 80 f7 48 3e 22 6d 60 3d 9f 80 95 be ff b5 d3 be
       0.19625664 0.054791577 -0.29199693 -0.4134979
000050 83 a8 e6 be 8c a6 02 be e6 51 64 be 93 29 98 be
       -0.4505044 -0.12758845 -0.22296867 -0.2971922
000060 9b 6b a0 3d 1a 11 5a bd b9 fa c8 be 61 c2 73 bc
       0.07833024 -0.053238966 -0.39253786 -0.0148778865
000070 3a fb 31 be 04 8b fa be dc 14 8f be bb e8 d4 3b
       -0.17380992 -0.48934186 -0.27945602 0.00649747
000080 9d 8f 64 be d8 3e 1f be 9a cb d0 3d da 4a ed bd
       -0.22320409 -0.15551317 0.10195084 -0.115865424
000090 db 8f 8b be 62 7a 5e be fc 5d 11 be b2 7f ae 3e
       -0.2725819 -0.21726373 -0.14196008 0.340818
0000a0 7b b3 ca 3d 6e 23 71 be 4c 05 27 be 6f 87 02 bf
       0.098975144 -0.23548672 -0.16310614 -0.50987905
0000b0 cd 89 b0 3d b7 6d 47 bd 57 45 14 be f5 54 91 be
       0.086200334 -0.048688617 -0.14479576 -0.2838513
0000c0 79 c6 8f be 31 93 48 3e 1f 94 71 be 92 62 15 bd
       -0.2808111 0.19587399 -0.2359166 -0.036470957
0000d0 cf c1 b4 be 53 b6 99 be 27 17 8d be 4d 8e 23 3e
       -0.35304114 -0.30021915 -0.27556726 0.15972252
0000e0 a0 6e 0e 3e 54 1e d4 bc 93 68 a7 be e1 c6 c8 3d
       0.13909388 -0.025893368 -0.3269697 0.09803558
0000f0 81 de 35 be 26 04 0c bf 86 29 50 3e ed 02 04 3c
       -0.1776066 -0.5469383 0.2032834 0.008057338

model/batch_normalization_2/FusedBatchNormV3;model/conv2d_2/BiasAdd/ReadVariableOp;model/conv2d_2/BiasAdd f4 [128]
000000 54 83 23 3f 15 75 2e 3e ba 98 62 3e 67 c1 e0 3e
       0.63872266 0.17036851 0.22128573 0.43897554
000010 30 85 9d 3e fa 9c b8 3e e5 f7 d2 be 0c b6 0a 3f
       0.30765676 0.36057264 -0.41204754 0.5418403
000020 74 9b f7 3c ae a3 91 3e 92 39 6c 3f e2 45 06 bf
       0.030225493 0.2844519 0.92275345 -0.5245038
000030 0e 83 2a 3e b8 68 0a 3f 10 cd 89 bd af bb 78 be
       0.16651556 0.5406604 -0.06728566 -0.24290346
000040 41 0d ef 3d 81 a6 28 3d 1b 92 89 bd cc 8d 6d 3e
       0.1167245 0.041174415 -0.067173205 0.23198622
000050 c5 89 0b 3e b4 71 b9 3e a7 77 82 be a3 5e 37 be
       0.13626774 0.3621956 -0.25481912 -0.17907195
000060 27 b3 6b 3e 5e cb 21 3f 09 e6 c6 be 8b eb 48 be
       0.2301756 0.6320094 -0.38847378 -0.19621103
000070 35 bc 4d be ff f2 18 3e 2d 72 59 3e 39 ff 92 3e
       -0.20091327 0.14936446 0.21234961 0.28710344
000080 cd f5 60 3e 70 6d bc be 77 00 ca 3d 23 6b 03 3e
       0.21968766 -0.36802244 0.0986337 0.12833838
000090 27 06 2c bf 67 07 88 3b d5 47 91 3e 0a e3 0e bf
       -0.6719689 0.004151273 0.28375116 -0.55815184
0000a0 5a 42 86 be 6f e6 f7 bd 59 be 81 bc c3 fd 2b 3f
       -0.26222497 -0.121044986 -0.015837835 0.67184085
0000b0 ef c1 8d 3e 24 b2 ca 3e 58 b0 31 bf e3 5d d1 be
       0.27687022 0.39589036 -0.69409704 -0.40891942
0000c0 ed 67 97 3d d7 59 be 3e 05 32 e7 be b8 46 31 bf
       0.07392869 0.37177917 -0.4515535 -0.69248533
0000d0 86 17 76 3e 0b a1 aa be 99 9f 64 be 62 b6 f9 3d
       0.24032411 -0.3332599 -0.22326507 0.1219299
0000e0 b5 53 10 bf e8 d7 c8 3d 37 78 2b bf 8f ce cf 3e
       -0.56377727 0.09806806 -0.6698031 0.4058728
0000f0 d3 ed d6 bd 85 72 8f be 0a 93 ab be c8 c1 01 bf
       -0.1049458 -0.2801706 -0.3351062 -0.5068631
000100 62 bb 79 3e 99 e0 49 3e a2 13 62 bf 2e c3 48 3f
       0.24387887 0.19714583 -0.8831121 0.7842282
000110 38 9d 3d 3f 70 c4 d2 3d 56 29 b2 3e 88 34 86 3d
       0.7406802 0.10291374 0.34797162 0.06552988
000120 29 23 02 bf 70 a6 70 3e e5 f4 a2 3e a7 8a 24 3e
       -0.508349 0.23500991 0.31827465 0.16068517
000130 e2 3b e1 bd 6d 1c d3 3d d1 9b 7c 3e 51 1e 93 3d
       -0.1099775 0.10308156 0.24668814 0.07183517
000140 d7 8b 09 bf e0 6d 22 bf ad 5c 8c 3e ef 59 8f 3e
       -0.53729004 -0.63448906 0.27414456 0.279983
000150 fc a9 62 be 47 bb 19 3f 46 7b f3 be f1 90 0b 3e
       -0.22135156 0.6005139 -0.47554988 0.1362951
000160 40 c4 62 3e 72 68 6e 3e 5f 08 5a 3f 6c 66 a0 be
       0.22145176 0.2328203 0.85169023 -0.31328142
000170 7c 49 95 be 21 5c 9f be bf ac aa 3e aa 34 7a bf
       -0.29157627 -0.31124976 0.3333492 -0.9773661
000180 be a2 38 3d a6 1f 1e bf 29 9d c7 3e 2c 16 87 3c
       0.045077078 -0.6176704 0.3898709 0.016490065
000190 08 bc 7e be 09 e6 0b 3e 11 fe 90 3e 84 94 88 ba
       -0.24876416 0.1366197 0.28318837 -0.0010420238
0001a0 15 0f f5 be a4 4c 01 3f 3d 61 5a 3d 50 ac bf 3d
       -0.4786307 0.5050757 0.05331539 0.09359038
0001b0 d0 b1 86 3e c0 c1 2d bf 8a 08 01 3f 95 fc 25 bf
       0.26307535 -0.67873764 0.50403655 -0.64838535
0001c0 d9 f7 44 bd fa d7 79 3e fd da 30 3f 84 8a 0c 3e
       -0.04808793 0.24398795 0.6908415 0.13724715
0001d0 b3 8c 85 3e c3 00 e1 3d 3c 45 27 3e 6d 68 87 be
       0.26083907 0.109864734 0.16335005 -0.26446858
0001e0 80 ed 2c 3e 97 94 6b 3f 9d 1f 66 3e 80 f3 42 be
       0.16887474 0.92023605 0.22472997 -0.190382
0001f0 e3 f3 5f be 25 2f 12 bf 98 c7 2a bf 7b 71 4d 3e
       -0.21870379 -0.57103187 -0.66710806 0.2006282

model/conv2d/Conv2D f4 [32, 3, 3, 1]
000000 86 41 83 b7 b0 57 e0 3c 31 a4 29 bc 5f 69 10 bd
       -1.5646929e-05 0.027385563 -0.010354088 -0.03525674
000010 2c d3 95 bd e5 f2 37 3d b6 19 2c be 11 75 b0 bd
       -0.073156685 0.044909377 -0.16806683 -0.08616079
000020 2b b6 02 be f1 61 81 3d 24 a0 14 3e b0 7d 5c bd
       -0.12764804 0.06317509 0.14514214 -0.053830802
000030 7c 0b 61 bd 88 cb 8a 3d d5 2b b2 bc cd 63 85 bd
       -0.054942593 0.06777102 -0.021749416 -0.06513176
000040 a5 78 13 3c a4 be 54 3c c8 52 e8 3d ec 5a 50 3e
       0.009000932 0.012984905 0.11343914 0.20347184
000050 7a d4 35 3e 45 3d 16 be 17 77 3b be 09 60 b8 3d
       0.17756835 -0.1467181 -0.18307148 0.09002692
000060 6b 85 cd bc 32 a3 a1 bd 6f 62 da bd b3 3a 4c 3d
       -0.025088033 -0.07892455 -0.10663306 0.049860667
000070 01 d5 3f be e9 35 33 be 69 67 f3 bd 24 36 73 bd
       -0.18733598 -0.17501034 -0.11884958 -0.059377804
000080 bb d1 07 3e 0a e7 aa 3d 5e 1c 11 3e a6 90 29 be
       0.132636 0.083448485 0.14170977 -0.16559085
000090 43 e2 cb bd 14 79 1c be 28 df b9 bd 8a ad 4f 3e
       -0.099552654 -0.15280563 -0.09075767 0.20281044
0000a0 2d 55 43 bc 22 55 19 3e 9b 1a 09 be 09 3e 77 3c
       -0.011922163 0.14973882 -0.13389055 0.015090474
0000b0 62 9c 03 3e 79 88 10 be a3 6e b3 bc d7 d5 e2 bc
       0.12852624 -0.1411456 -0.021903342 -0.027689857
0000c0 ea 9e 94 3d 09 fb 37 be df d7 cc bc f5 6e 14 3d
       0.07256873 -0.17966856 -0.02500528 0.03623863
0000d0 25 2b 5e be c9 52 62 be 58 39 31 3e 89 fc 70 3c
       -0.21696146 -0.22101893 0.17307031 0.014708647
0000e0 6a 1a 23 3d 45 49 fe 3d ee c2 d3 bc 33 57 6f bd
       0.039820112 0.12416319 -0.025849786 -0.05843277
0000f0 3b 53 d3 bd da 3d 83 3d 9f 80 11 3c 29 63 71 bd
       -0.10318609 0.064082816 0.008880763 -0.058932457
000100 02 be 05 3d 5b 2f 0f 3e 7d 5a f5 3c ed 7a 1e be
       0.03265191 0.13982908 0.029950375 -0.1547658
000110 28 6f a3 3b 8e 7b 2b 3e c9 03 f5 3d ee 4d c2 3c
       0.004987616 0.16746351 0.119636126 0.0237188
000120 8c dc 9f 3d 5f 07 23 3e a5 57 7e 3d 6e c9 82 3d
       0.07805738 0.1592078 0.062095303 0.06386076
000130 bc 28 4c be 0d 87 83 bd 21 dc 39 be a3 dc 4a be
       -0.19937414 -0.06422243 -0.18150379 -0.19810729
000140 52 80 34 be 69 82 4e 3e 43 b1 25 3d d7 aa 51 3d
       -0.17627075 0.20166935 0.040452253 0.051188316
000150 ff 28 77 be 2a 20 77 bd 32 32 85 bd ba 11 51 3d
       -0.24136733 -0.06033341 -0.065037146 0.051042296
000160 02 e1 53 3d a2 8a de 3d e8 80 92 3d 7c fd fc 3d
       0.051728256 0.10866286 0.07153493 0.12353036
000170 b8 53 be 3d 48 d6 d0 bd ce ae 3b 3e 2e 97 1f be
       0.09293312 -0.10197121 0.18328401 -0.15585014
000180 c3 ff 04 3e d3 7e d7 bd d5 3f 4f bd 11 4d 29 3e
       0.1298819 -0.10522237 -0.050597984 0.16533305
000190 a8 dd eb 3d 9c 94 2d be c3 07 f9 3d 13 b8 46 3e
       0.11516887 -0.16951221 0.121596836 0.19406156
0001a0 51 c6 d3 3d c4 f6 56 bd 3e 24 5c bc 6a c2 c9 bd
       0.1034056 -0.052481428 -0.013436375 -0.09851535
0001b0 0a 3c 5c bd 6e 16 b0 3d de 29 c0 3d 32 92 5f 3e
       -0.053768195 0.08598028 0.093829855 0.21833113
0001c0 4b d2 28 3e 72 97 79 bb 22 57 26 be 64 3e 4c 3d
       0.1648647 -0.0038084653 -0.16244176 0.049864188
0001d0 a8 6e 8d bd 3b 92 af bd 82 86 6c 3b 2a 41 0b 3e
       -0.06905872 -0.08572813 0.0036090915 0.13599077
0001e0 0c e5 5e bd f0 39 d9 3b f1 6f 94 bb 82 4a 51 3b
       -0.054417655 0.006629221 -0.004529946 0.003193528
0001f0 1e ac d3 3d d9 07 39 be 91 07 06 bc 90 d2 9d bd
       0.10335563 -0.180694 -0.008180515 -0.07706177
000200 54 35 b3 3d 39 f8 35 be 61 92 3b be c5 9a 27 3e
       0.08750406 -0.1777047 -0.18317558 0.16367634
000210 e4 14 b8 3c ca aa 31 be e6 6b 05 3e 8c 78 1e 3e
       0.022470899 -0.17350307 0.13029441 0.15475672
000220 ac f2 1a 3e 8b 83 3b be 65 64 0f 3e ae 28 b3 3d
       0.15131634 -0.18311898 0.14003141 0.087479934
000230 fd 1d b2 bd 1a 92 a1 bd 58 8c d7 3c e4 39 0a 3e
       -0.08697126 -0.07889195 0.026312038 0.13498646
000240 9e 86 5a be 41 40 d3 bd 49 de 39 be 34 ae cd 3b
       -0.21340415 -0.1031499 -0.18151201 0.00627687
000250 8f 2e a6 bc 28 b3 b9 3b 39 72 79 3d f6 82 40 be
       -0.020285873 0.005667109 0.060899947 -0.18799958
000260 a7 5c 10 3e 0a f6 16 be 8d f5 2f 3e c2 67 cc bd
       0.14097844 -0.14742294 0.17183514 -0.09980728
000270 17 b2 a9 bb 6e 88 35 3d ed 0e cf bc d8 51 5c 3e
       -0.0051787007 0.044319563 -0.025275672 0.21515596
000280 01 7a 37 3e 06 a0 07 3e 97 bd 2c be 73 56 f2 bd
       0.17917635 0.13244638 -0.16869198 -0.11832895
000290 27 af ab 3d 24 c1 2b be 0a 78 2c be 88 f8 44 be
       0.08383017 -0.16772896 -0.16842666 -0.19235432
0002a0 6c 69 2b 3e e9 c5 2c bd 0e 4b a5 bd 25 b9 4e 3c
       0.16739434 -0.04218093 -0.08070956 0.012617384
0002b0 97 7a 31 3e 95 a2 5e 3e 22 34 55 3e 06 22 d4 3d
       0.1733192 0.21741708 0.20820668 0.10358052
0002c0 82 bc 2a 3e 0e 9d 5c 3d ac 81 a4 3d 6c de 49 be
       0.16673473 0.053860717 0.080325454 -0.19713753
0002d0 d0 f3 07 be 91 3b 09 3e 17 77 c9 3b 74 67 cc 3b
       -0.13276601 0.13401629 0.00614823 0.0062379185
0002e0 c1 d4 3e bd af df 63 3d 79 9d 4c be 2a a2 7c bd
       -0.046589617 0.055633243 -0.19981946 -0.06167809
0002f0 96 2a 49 be c8 07 36 3d aa 8f d7 3c 2b 31 65 3c
       -0.19645151 0.044441015 0.026313622 0.013988773
000300 bf d9 3d be 95 cf 0c be c2 a3 d2 bd ea ef 3d bb
       -0.18540095 -0.13751061 -0.102851406 -0.0028982111
000310 ba 31 04 3e a7 86 ca bd f6 c2 1b 3e b3 b2 43 3e
       0.12909594 -0.09888964 0.1521109 0.19111137
000320 ea ec 20 be 73 e5 53 be 2f 8e 73 3d 13 9d 02 3d
       -0.15715376 -0.20692997 0.05946177 0.03188808
000330 1f 66 18 3e 04 69 8c 3d ad c9 61 bd 65 b6 1d bd
       0.14882706 0.06855968 -0.055123974 -0.038504023
000340 39 c2 d3 3d 62 41 da bd 0f 3c 30 bd 3a 63 04 3e
       0.103397794 -0.10657002 -0.043026026 0.12928477
000350 c2 e0 3d 3d 76 21 0b 3e a7 3c d5 bd 3d 2d 1b 3c
       0.046356924 0.13586983 -0.10411959 0.009471235
000360 56 08 2e be 25 fc d6 3d c5 da 6b bd fe 82 0c be
       -0.16995367 0.104973115 -0.05758168 -0.13721845
000370 cc 6f 2c be 65 90 0c be 55 e0 26 be 34 12 8e 3d
       -0.16839522 -0.13726957 -0.16296513 0.06937066
000380 df 89 23 be ad 50 08 3e b2 92 8d 3d 92 cf 11 3e
       -0.15970562 0.13312025 0.069127455 0.14239338
000390 bc 44 42 be 49 41 e8 bd 6b dd 1f be d2 94 c7 3a
       -0.18971533 -0.11340577 -0.15611808 0.0015226847
0003a0 8c c0 f0 bd d3 61 3c 3e 94 c2 53 3e 00 2c ce 3d
       -0.117554754 0.18396692 0.20679694 0.10066986
0003b0 8a b5 cb 3d 92 c3 c4 bd fe 71 d7 bc b1 e6 06 be
       0.09946735 -0.096076146 -0.026299473 -0.1317394
0003c0 de ba 7e 3d ac 69 7e bc f5 43 ae bc a2 7f 5a bd
       0.06218993 -0.015528124 -0.021272639 -0.053344376
0003d0 62 58 06 be c6 64 70 3d 13 60 b4 bd f4 cc 8e bd
       -0.13119653 0.058689855 -0.08807387 -0.069726855
0003e0 3d 1f 12 3d 32 9e 04 be c0 2b 8f bd 67 3e 3d be
       0.035674322 -0.12950972 -0.069907665 -0.18480836
0003f0 af 50 da bd 85 41 84 3d a5 73 7c 3d 52 24 93 3d
       -0.106599204 0.06457809 0.061633725 0.07184662

model/conv2d_1/Conv2D f4 [64, 3, 3, 32]
000000 e8 48 b6 bb 12 39 1b 3d 36 44 3b bd 6f 39 6d bd
       -0.0055628903 0.037896223 -0.045719348 -0.0579161
000010 6a 9d 3c 3d 5b ae dd 3c 4f 20 17 bd 5f f8 53 3d
       0.04604856 0.027060678 -0.036896046 0.051750537
000020 d3 eb 85 3d 40 c2 cc ba 22 9a 85 bd ec 38 25 bd
       0.065391205 -0.0015621856 -0.06523539 -0.040337488
000030 d9 93 d0 bd 18 60 b4 bd 8e 22 5f bd 92 62 1b bd
       -0.1018445 -0.08807391 -0.054476313 -0.0379358
000040 3d 29 74 bd bc b8 a9 bd eb 02 74 3d 7b d4 8b bd
       -0.05960964 -0.082871884 0.059573095 -0.06827637
000050 e8 4e cf 3b 7e e2 bc 3b d8 d1 7e bc b7 3b 8d 3d
       0.006326545 0.0057643047 -0.01555296 0.06896155
000060 9a b7 28 bd 95 cf d8 bc e1 38 65 3d e6 a1 e5 bb
       -0.04119072 -0.02646617 0.055962447 -0.007007825
000070 46 4f a0 3c 0c 82 27 bd c3 91 73 3d 45 2b 4e 3d
       0.01956905 -0.040895507 0.05946518 0.050334234
000080 e4 4e 78 bc a8 6a b1 3c 8c f1 3e 3d 3c 51 4a 3d
       -0.015155528 0.021657303 0.046617076 0.049393877
000090 34 8a 84 3d e9 9a 32 3d d4 c2 ee bc 65 0f b2 bd
       0.06471673 0.043604765 -0.029145636 -0.086943425
0000a0 a4 86 59 3d 33 e6 8a bd 15 c8 b0 bd 35 3f 96 bd
       0.05310692 -0.06782188 -0.086319126 -0.073362745
0000b0 98 e9 c6 bd 44 5a 62 3d 8f 14 42 bd 9e 4b 8e 3d
       -0.09712523 0.055261865 -0.047382887 0.069480166
0000c0 ca 44 65 bd 27 70 45 bd f4 ec f2 bc a2 b7 25 bd
       -0.055973805 -0.04820266 -0.029654004 -0.04045833
0000d0 f5 30 af 3d 52 55 3a 3c d0 a5 fc 3a 0d b8 02 3c
       0.0855426 0.011372881 0.001927549 0.007978451
0000e0 3e e0 65 bd c2 bd 16 bd 7c c3 a7 3b 8b 51 a3 bd
       -0.056122057 -0.03680206 0.005119739 -0.079745375
0000f0 e9 e4 ef 3c e3 10 4f 3d 4e b9 b2 bd fb af 67 bc
       0.029283958 0.050553214 -0.0872675 -0.014141078
000100 d2 03 5f bc fc 5f c7 3d 24 ac c4 3d 85 de ec bc
       -0.013611751 0.097351044 0.09603146 -0.0289147
000110 f2 c2 7a 3d 17 1f c1 bc e1 ff b2 bc a1 b2 5e bd
       0.06122107 -0.023574395 -0.021850528 -0.054369573
000120 b1 1f 4d 3d 36 2e 5c 3d 76 5d 85 bd ab c6 94 bd
       0.05007905 0.053755008 -0.06511967 -0.072644554
000130 3e 0f 4a bd d6 10 af 3d 4e d5 51 bd d5 4b ea bc
       -0.049330942 0.08548133 -0.051228814 -0.028600613
000140 be 51 59 bd fd 32 f5 3c dd 93 12 3b 7a 3d 2d bd
       -0.05305647 0.02993154 0.0022365965 -0.042294957
000150 25 89 ea bc cd 01 3a 3d 06 44 c7 bc a4 95 98 bd
       -0.028629849 0.045411874 -0.024324428 -0.07450417
000160 d0 81 5c bd 26 99 23 3d 65 a1 c7 3b fb ae ee 3c
       -0.053834736 0.039940976 0.006092238 0.029136172
000170 af a0 5f 3d e5 c5 df 3c 1f 6f ac bd 95 27 ba bd
       0.0545966 0.027316043 -0.08419632 -0.09089581
000180 8d 55 37 3c e8 76 c1 bc f1 39 8c bd 71 c6 b2 3d
       0.0111898305 -0.02361627 -0.06846989 0.08729256
000190 a2 6c 89 3d 65 34 fc bc 61 1e 23 bc 78 f2 20 bd
       0.06710173 -0.030786702 -0.009955973 -0.039293736
0001a0 a9 f4 64 bd 73 f7 79 bd 3b 6a 9d bd ad c0 8e bd
       -0.05589739 -0.061027 -0.076862775 -0.06970344
0001b0 f7 1d 44 3c 29 ba aa 3d 6e 16 c5 bc 93 9d 39 3c
       0.011970035 0.083362885 -0.024058547 0.0113290725
0001c0 ec 28 f1 3c 4f e0 c7 bc cd 7f 91 bd 7f 7a 07 bc
       0.029438458 -0.02439895 -0.07104454 -0.008268951
0001d0 92 f2 ff 3c f7 0f 16 3d 82 0a 8c 3d 08 1a 4a 3d
       0.031243596 0.03663632 0.06837942 0.04934123
0001e0 c3 ef e9 bb 6e a0 3a 3d 37 79 b4 bd 10 01 7c 3d
       -0.0071391775 0.045563154 -0.088121824 0.06152445
0001f0 37 b2 54 bc c1 6f 83 3c d1 96 b3 bc 3a 7b 81 bb
       -0.012981943 0.0160445 -0.0219225 -0.0039514573
000200 1c bd 83 3d 70 09 c2 3c a3 38 0d 3d ba 31 5e 3d
       0.06432554 0.02368614 0.03447784 0.05424664
000210 4e 6c 8a 3c e6 ae 64 3d 33 16 c8 3c a4 eb 5f bd
       0.016897347 0.05583086 0.024424648 -0.054668084
000220 ab 7c 7f bd 85 ad c9 bd 28 9f 73 3d 89 67 5c 3c
       -0.062374752 -0.09847549 0.059477955 0.013452419
000230 f8 e8 04 3d 4d f8 f2 3c 4e b9 23 bc 58 4f 2c 3d
       0.03244874 0.029659415 -0.009992911 0.042067856
000240 b3 31 a8 bc 39 4f 46 3d 70 e2 e0 bc cc 2d f2 3c
       -0.020531511 0.048415396 -0.027451724 0.029562853
000250 81 a1 90 3d 15 eb 74 bd 3f b3 57 3d 0b 35 1a bd
       0.070620544 -0.059794504 0.052661177 -0.037648242
000260 59 d1 82 3d cc fd e6 ba ca da 03 bd d3 81 9d bd
       0.06387586 -0.0017623245 -0.032191075 -0.07690778
000270 c7 5c c5 3c c8 2e ce bc 23 37 83 3d 4c 26 05 3d
       0.024092091 -0.025168791 0.06407001 0.032507226
000280 7c d8 61 bc 98 ce bb 3d a8 1f ae 3d 31 12 ae 3d
       -0.013784524 0.09170264 0.08502132 0.084995635
000290 0f d1 3f bd 45 49 4d bd 77 81 23 3d 86 c4 9c bd
       -0.046830233 -0.050118703 0.03991839 -0.07654671
0002a0 6f 40 d4 bc 4d 83 a9 bd 7a 5b 16 bd 97 d0 fb 3b
       -0.02590963 -0.08276997 -0.036708333 0.007684778
0002b0 44 e8 44 bc d4 2e 87 bd 57 af 7e bd be 00 99 bd
       -0.012018267 -0.06600729 -0.062178936 -0.07470845
0002c0 fa 17 38 bd ea 11 02 bd 44 f8 5d 3c 25 e9 9e bd
       -0.04494474 -0.031755365 0.013547961 -0.077593125
0002d0 81 da 4a 3d ab 6d 46 3d 80 26 76 3d 9a a6 1f 3d
       0.049524788 0.04844443 0.06009531 0.038977243
0002e0 53 43 fb bc 9b af 49 3d 10 e2 da 3c 33 7d d8 bc
       -0.030671751 0.049239736 0.026719123 -0.026426887
0002f0 1a 6b 9f 3d 58 5c c7 3c cb 91 2d 3d ef 31 bd bd
       0.077841 0.024336025 0.042375367 -0.0923804
000300 91 f8 c3 bc b9 aa 1d 3c 08 a2 b9 bc ba 33 eb bb
       -0.023922237 0.009623223 -0.02266027 -0.007177797
000310 c8 5a 9f bd ff 36 49 3d 05 72 ac bd 41 4a 78 bd
       -0.07780987 0.049124714 -0.08420185 -0.06061769
000320 67 7f 85 3d 16 9d 93 bd 5a 19 80 bc 27 18 bb bd
       0.06518441 -0.07207696 -0.015637089 -0.09135466
000330 b2 33 48 3d f9 56 3d 3d 5b 90 22 bd f1 63 69 bd
       0.048877425 0.04622552 -0.03968845 -0.056980077
000340 a4 a0 4a bd 4f f4 7f 3d e9 06 9d 3d 54 a0 06 bd
       -0.049469605 0.06248885 0.07667334 -0.032867745
000350 12 3c 93 bd 7a cc 37 bd 38 06 b3 bd 57 93 10 3d
       -0.07189192 -0.04487274 -0.087414205 0.035296764
000360 38 8b c0 bc ac 74 a2 3d 26 0a 9f bd 80 7d b6 3d
       -0.023503885 0.0793241 -0.077656075 0.08910656
000370 da 30 50 bd fd f2 80 bd b6 ed 9e 3b eb 18 20 3d
       -0.05082784 -0.06296346 0.0048501147 0.039086264
000380 f6 f7 23 3c 9f 2e 9d 3d 52 08 53 3d fa f7 3d 3d
       0.010007849 0.07674908 0.051521607 0.046379067
000390 f0 ff b9 bd e0 53 73 3b 65 1f 93 3d ce 73 88 3d
       -0.09082019 0.003712885 0.071837224 0.06662713
0003a0 40 5e af 3d 10 72 74 3d 61 0b 17 bd 0e eb 54 3d
       0.08562899 0.05967909 -0.036876086 0.051981978
0003b0 65 98 6f bc d7 77 bc 3d 48 8b 97 3c 62 3c 15 bd
       -0.014623736 0.09202545 0.018499032 -0.03643454
0003c0 ad af dd bc af de 87 3c 80 12 29 3d 49 c6 ab bd
       -0.027061308 0.016585676 0.04127741 -0.08387429
0003d0 7a 71 48 bd 79 81 a2 bd 10 e2 4c 3d 81 e6 95 bd
       -0.048936345 -0.07934851 0.050020278 -0.07319356
0003e0 a2 6d 7d bd 69 2b cb 3b 42 ec 2d bd 6c d3 39 3d
       -0.061872132 0.0062002433 -0.04246164 0.045367643
0003f0 3c 4a 81 bd 42 83 a7 bd 02 bb 95 bd d2 8b 74 bd
       -0.06312987 -0.08179332 -0.073110595 -0.059703656

model/conv2d_2/Conv2D f4 [128, 3, 3, 64]
000000 56 06 41 3d 08 e9 b8 3c f3 ac 2d bd 56 82 20 3c
       0.047125183 0.022572055 -0.042401265 0.0097966995
000010 40 34 a6 3c 03 ef 14 bd dc b7 13 3d 58 24 b4 3a
       0.020288587 -0.03636075 0.036064014 0.0013743741
000020 21 38 42 bd 0b 23 42 3d e2 0e a8 3c 56 ac 10 3d
       -0.04741681 0.0473967 0.02051491 0.035320602
000030 bd d2 cb bc d0 8f 53 bd e7 00 dc bc 10 d6 a5 bc
       -0.024880761 -0.051650822 -0.026855899 -0.020243675
000040 a2 3a 17 3d af 91 25 bc e0 e4 1d 3d 60 bf aa bc
       0.03692115 -0.010105534 0.03854835 -0.020843208
000050 ba 84 fb 3c 56 0d a7 3c fe 94 af bc d8 0d f1 3c
       0.030702937 0.020392101 -0.02143335 0.029425547
000060 27 fc f6 3c 6d 40 53 bd 23 ca b8 bc 99 db 56 bd
       0.030149532 -0.051575113 -0.022557324 -0.05245552
000070 83 ff 2a bd 50 16 0a 3d ce 3a 92 bb a8 81 5d bc
       -0.04174758 0.033712685 -0.0044625765 -0.013519682
000080 43 ab 62 bd 3b 6b 2d 3d e0 bb 52 bd 35 eb b7 bc
       -0.05533911 0.04233859 -0.051448703 -0.022451023
000090 45 95 cc bc d8 32 5c bd cc b7 99 bc 6d 78 05 bd
       -0.024973521 -0.053759426 -0.018764399 -0.03258555
0000a0 f3 78 97 3b e2 9a 8e 3b 64 3c 42 3c 1d 9f ed bc
       0.0046225726 0.0043519596 0.011855219 -0.029006535
0000b0 64 ff 2b bd 5b ef d2 bc b9 f5 50 bd 73 9a 37 bb
       -0.041991606 -0.0257489 -0.05101559 -0.0028015643
0000c0 82 ca b7 bc ad bf 29 3c 02 7e 48 bd 4f 81 34 3b
       -0.02243543 0.0103606405 -0.048948295 0.0027542894
0000d0 8b d0 28 bc 0c 4b 99 3c 14 13 62 bd fd 5c ab bc
       -0.010303627 0.018712543 -0.055193976 -0.020918364
0000e0 a6 dc a6 3b 1b 9f 23 3d e4 18 00 bd ed 9f aa 3c
       0.0050922213 0.039946657 -0.031273738 0.020828212
0000f0 c9 f5 36 3b 68 6c b4 bc f4 6c c6 3c b8 3a 5f bd
       0.0027917495 -0.022024348 0.024221875 -0.054499358
000100 84 d8 4a bd a7 20 37 3d af 22 84 bc ac 34 2c bd
       -0.04952289 0.044708874 -0.01612982 -0.04204242
000110 9c da 01 bc fc ad ac bc 5e e6 7b bc ee a5 8c 3c
       -0.007925656 -0.021079056 -0.015374748 0.017168965
000120 50 a9 3e bc 17 89 e2 bc 83 d8 39 bd 62 0e dc bc
       -0.011637047 -0.02765326 -0.045372497 -0.026862327
000130 36 09 62 3c 69 c1 6b bd 3b d2 ac 3a 03 83 43 3d
       0.013796141 -0.057557497 0.0013185212 0.047732364
000140 f2 08 9f 3c 1b 02 0e bd 89 ba 6d 3b 9e 14 a2 3c
       0.019413445 -0.034669977 0.0036274514 0.019785222
000150 bd f6 8c bc 03 5c 96 3c 5a af 2d bb a4 7a 23 bc
       -0.017207498 0.018354421 -0.0026502223 -0.00997797
000160 e2 70 0b bc e8 2d 25 3d 74 ce 0a bc 63 a3 fb bb
       -0.0085108 0.040326983 -0.008472074 -0.0076793893
000170 7d a4 5b bd 25 b7 3f bd e8 46 71 bd a3 aa 5b 39
       -0.053623665 -0.04680552 -0.058905512 0.00020949035
000180 76 de f8 bc d0 76 22 ba 01 03 4b 3c e1 be 07 bc
       -0.030379515 -0.0006197514 0.012390853 -0.008285255
000190 5e 1b 32 bd 2a db 14 bd 91 f5 9c 3b e6 18 be bc
       -0.04348313 -0.036341824 0.004790016 -0.023205232
0001a0 f4 c4 dc 3b e8 8d 41 bd 2e c7 2b 3d d2 d8 45 bc
       0.006737346 -0.047254473 0.041938 -0.01207562
0001b0 7d 33 42 3d 90 1e 66 bc 3c f7 a1 bc 92 17 49 bd
       0.047412384 -0.014045373 -0.01977121 -0.049094744
0001c0 90 44 08 bc df 56 c8 bc d3 dc 35 3d 71 39 2a 3d
       -0.008317128 -0.024455486 0.044400048 0.041558687
0001d0 9b ac f5 3c 92 44 31 3c aa a0 18 bd 93 ad db 3c
       0.029989531 0.010819571 -0.037262596 0.026816165
0001e0 73 10 cf 3c 9e 5e 56 3d b1 17 20 bd 98 7f 5b 3c
       0.025276398 0.052336328 -0.039085094 0.01339712
0001f0 4b 19 f3 bc f2 1a f2 bc db a7 e1 3c 02 ba 15 bd
       -0.029675147 -0.029553864 0.02754586 -0.036554344
000200 8f 5f b0 bc 01 61 3e bd 55 cf 6d 3a 05 0d 2c bd
       -0.02152994 -0.04647923 0.00090717274 -0.042004604
000210 69 b4 27 bb aa 94 3f 38 da e7 38 bd fb b0 14 bc
       -0.002558971 4.5676403e-05 -0.045142986 -0.009075399
000220 9d 6f fa 3b 5a 62 ef 3c cb 4b 75 3c 86 5c 02 3c
       0.0076427 0.029221702 0.014971684 0.00795663
000230 11 e1 06 3d f7 6b d9 3c e4 71 92 bc 36 59 f3 3c
       0.032929484 0.02654074 -0.017876573 0.029705625
000240 6a 94 96 bc e1 f5 b1 3c 64 9b b4 3c 0d 10 3b bd
       -0.018381316 0.02172369 0.022046752 -0.045669604
000250 c3 27 c4 3b 2b ff bd 3b 88 10 3a bd 75 a3 b8 bb
       0.0059861853 0.0057982407 -0.04542592 -0.00563472
000260 e6 87 7d bc 46 a6 93 bc 9d 1d e5 bc 68 d5 f7 3c
       -0.015474295 -0.018023621 -0.027968222 0.030253127
000270 42 5e e5 3b d1 fb 08 3d 59 44 1d 3d dd a8 90 bc
       0.006999762 0.033443276 0.03839526 -0.017658645
000280 88 b6 dd bc ad 37 95 bc 3b d4 01 bd 64 5b 9d 3a
       -0.027064577 -0.018215025 -0.03169654 0.0012005386
000290 c4 12 4a bd 76 47 30 3d 3f e1 17 bc 3e c9 49 3d
       -0.049334303 0.0430369 -0.009270011 0.049264185
0002a0 57 e6 17 3d ed 26 26 bd 5a 70 e7 3c 1b ea 25 bd
       0.037084904 -0.040564466 0.028251816 -0.040506463
0002b0 0f 19 00 bd db f0 44 3c 2a e2 02 3d 85 f3 6a bd
       -0.031273898 0.012020315 0.031953968 -0.057361145
0002c0 91 da 19 3a 70 5f 04 3d 20 0b 0e bd be af 2a bb
       0.0005869056 0.03231758 -0.03467858 -0.0026044692
0002d0 5f 6a d6 bc 7a 51 61 bd 6a f5 4a bd 4a 4a 31 3d
       -0.026173769 -0.055009343 -0.04955045 0.04328374
0002e0 36 af 57 bb be 5f 8f 3c f4 1e c5 bb 89 36 9b 3c
       -0.003291083 0.017501708 -0.006015653 0.018946903
0002f0 bb 12 ca bc 2a 89 d2 3c 11 59 99 3c c6 f7 b6 bc
       -0.024667135 0.02570017 0.018719228 -0.022334944
000300 4d a6 99 3b 67 9c c1 bc 57 b7 bf bc 80 1f a6 3c
       0.004689014 -0.023634149 -0.023402853 0.020278692
000310 ca 8e 54 bc 90 f7 0e 3d 5d e4 95 3b 63 3a a5 3c
       -0.012973497 0.034904063 0.004574342 0.020169443
000320 42 34 5e bd e3 26 ce bc cd d7 94 bb b4 47 86 bc
       -0.054249056 -0.025165027 -0.004542327 -0.016391613
000330 1a 6d 5e bd 7a 34 51 bd 23 b7 52 bd c9 db 8e 3c
       -0.054303266 -0.051075436 -0.051444184 0.017438786
000340 9a 34 0d bd ff 58 fd 3c 7a c5 fe 3c a6 46 e5 3c
       -0.034473993 0.030926226 0.031100024 0.02798779
000350 a3 65 91 bc 7e 5d e7 3c 1a 31 e2 3c 3e 98 97 3b
       -0.01774866 0.028242823 0.027611304 0.004626303
000360 99 a2 5c bd f2 56 41 3c 4b e8 ae 3a c5 8d 0e 3d
       -0.053866003 0.0118005145 0.0013344375 0.03480317
000370 a1 42 c1 3c d5 a5 fe 3b 8c bd 13 bc 1f a3 9f bc
       0.023591341 0.0077712336 -0.009017359 -0.019486962
000380 9f 57 86 ba cb 91 27 bd 29 20 4e bd 32 d2 52 bd
       -0.0010249502 -0.040910523 -0.05032364 -0.05146999
000390 29 13 0e 3d 80 62 ba 3c 94 43 3c 3d dc 65 71 3c
       0.03468624 0.022752047 0.045962885 0.014733758
0003a0 88 27 c5 3c d0 38 5d 3c 48 b4 dc 3b f0 41 10 bd
       0.024066702 0.013502315 0.0067353584 -0.035219133
0003b0 4e a1 20 bc 02 eb 10 bd ea f6 92 3b 9e 0e 82 bc
       -0.009804083 -0.03538037 0.004485001 -0.01587611
0003c0 f7 bf 30 bd d8 9a 05 bd fd d0 4e bd 09 08 0c bc
       -0.043151822 -0.032618374 -0.050492276 -0.008546838
0003d0 65 3f ef bc 77 d7 15 bd 77 93 d0 bc 54 1b 80 3c
       -0.029205034 -0.036582436 -0.025460942 0.015638031
0003e0 ba 85 0a 3d 83 38 c2 ba 70 78 e3 3c e0 f1 a4 bb
       0.033818938 -0.0014817867 0.02776739 -0.0050337166
0003f0 43 7d 2c bd a0 66 68 bd 93 30 d0 bc d9 d0 3a bd
       -0.042111646 -0.056738496 -0.025413787 -0.04560933

model/dense/BiasAdd/ReadVariableOp f4 [128]
000000 fc 7e 1e ba 6c b6 9a ba e2 a3 4b bc bc 37 f1 bb
       -0.0006046144 -0.0011803634 -0.012429209 -0.0073613804
000010 99 c8 da bb ff c1 a7 bb 05 56 a7 bb 3e 3a 0d bb
       -0.006676745 -0.0051195617 -0.00510669 -0.0021549608
000020 5f fa 83 bc 00 00 00 00 62 9a 14 bc 3b ff 1e bc
       -0.016110597 0.0 -0.009070011 -0.009704406
000030 ef fa b0 bb f0 c9 ab 3b 53 0e 32 bc a9 33 57 bc
       -0.0054010074 0.0052425787 -0.010867673 -0.013134875
000040 00 00 00 00 8d 45 04 bb 5d c2 31 bb 76 9e f0 bb
       0.0 -0.0020183057 -0.0027123906 -0.0073431088
000050 98 b7 f7 bb 00 00 00 00 fb 05 4e bc 00 00 00 00
       -0.007559728 0.0 -0.012574668 0.0
000060 8a a4 9c bb 00 00 00 00 a0 5b 07 bc 98 b7 73 ba
       -0.004780357 0.0 -0.008261591 -0.0009297072
000070 fe 95 ad bb 00 00 00 00 c0 9f 44 bc 04 25 fa bb
       -0.0052974215 0.0 -0.012000978 -0.007633807
000080 9b 1e 83 bb e3 78 0b bc b7 a6 6a 3c 00 00 00 00
       -0.004001451 -0.008512708 0.0143219745 0.0
000090 77 e8 29 bc 9a e6 c3 bb e7 8e ea bb ab 6b 8f ba
       -0.010370365 -0.0059784176 -0.0071581486 -0.0010942122
0000a0 bd 40 e5 3b 29 ab 8b bb 0d f4 09 3c dd 07 7f bb
       0.006996243 -0.0042623472 0.008420003 -0.00389146
0000b0 85 e9 14 3c 06 d3 9a bb d1 89 d3 3b f6 fa ff bb
       0.0090888785 -0.004724863 0.006455638 -0.0078118993
0000c0 00 00 00 00 30 ec 8b bb 47 28 84 bc 32 fc b9 3b
       0.0 -0.004270099 -0.016132487 0.005675816
0000d0 00 00 00 00 ca ee 77 3c 00 00 00 00 11 5e 37 bb
       0.0 0.015132615 0.0 -0.0027979652
0000e0 00 00 00 00 f6 96 48 ba d7 bd 43 bc d6 bf f0 bb
       0.0 -0.00076518895 -0.011947117 -0.0073470874
0000f0 1f 5a 9e 3c 3c 03 1c bc 00 00 00 00 00 00 00 00
       0.019330082 -0.0095222555 0.0 0.0
000100 e6 ec 9e 3a 53 f6 cb 3a a9 d3 fd bb 4c f3 cc b9
       0.0012125045 0.0015561081 -0.007746179 -0.00039091182
000110 73 08 0b bb 4e a7 a7 bb b0 e6 ad bb c4 36 92 bb
       -0.0021214753 -0.00511638 -0.005307041 -0.004462095
000120 ac 9f bd 3b 00 00 00 00 7d 4f ae 3b 21 4f 46 ba
       0.0057868566 0.0 0.0053195343 -0.0007564892
000130 34 78 07 bc 30 6f b3 b8 00 00 00 00 63 a7 01 3c
       -0.008268405 -8.5560954e-05 0.0 0.007913443
000140 00 00 00 00 b5 ff a7 bb 83 b6 e9 3b 00 00 00 00
       0.0 -0.005126918 0.007132353 0.0
000150 fa a0 c4 bb 0d d1 06 bc 93 7a cd 3a 00 00 00 00
       -0.006000635 -0.0082285525 0.0015676789 0.0
000160 38 74 1a bc 76 23 ac bb 37 7f 3e 3a c8 3f 3f bc
       -0.009427123 -0.0052532507 0.00072668813 -0.0116729215
000170 c5 b7 dc bb d1 81 1f bc 86 72 34 bc 65 0e e9 3b
       -0.006735774 -0.0097355405 -0.011013633 0.0071123117
000180 ef 41 f6 bb bc 55 e8 38 47 fe 1f bc ba 17 2e bc
       -0.007515184 0.00011078591 -0.009765214 -0.010625774
000190 0f 75 ca 3b e7 0d 7d bb 2b d0 e2 bb 88 92 79 3b
       0.0061785053 -0.0038613023 -0.006921788 0.0038081724
0001a0 f9 a6 31 bb ff 02 a9 bb 04 58 65 bc 00 00 00 00
       -0.002710758 -0.005157828 -0.013998035 0.0
0001b0 6d 4d a3 3a 91 5d 34 bc ad ba b0 bb 42 b0 c4 3b
       0.0012458988 -0.011008636 -0.0053933472 0.006002457
0001c0 39 26 e6 ba 0e e6 3d 3c 1d d7 1c bc 79 92 2b bc
       -0.0017558999 0.011590494 -0.009572771 -0.0104719335
0001d0 46 4e 8f bb a6 88 53 38 ac 60 b7 ba 00 00 00 00
       -0.0043733446 5.0433584e-05 -0.0013990602 0.0
0001e0 78 ad ad bb 51 33 7c bb 49 cf 4e bb c5 e3 04 bb
       -0.00530022 -0.0038482735 -0.0031556657 -0.0020277363
0001f0 2b 39 ae 3b 00 a9 a4 3b db 8d 39 3b 36 9f 70 3b
       0.0053168735 0.005025029 0.0028313312 0.003671599

model/dense_1/BiasAdd/ReadVariableOp f4 [10]
000000 71 5d 29 3c 39 b7 59 bc 05 30 d0 bb 92 ca ef 39
       0.01033722 -0.013288313 -0.0063533806 0.0004573656
000010 56 83 15 3c 75 83 8d 3b 8e 01 fd b9 e5 e8 4f ba
       0.009125551 0.0043186494 -0.0004825708 -0.00079311273
000020 04 5f 1c 3c 93 91 8d bc
       0.009544138 -0.01728133

model/dense/MatMul f4 [128, 128]
000000 77 ea 10 be f5 cf 3d bd 81 50 c0 bd 75 1e 02 3e
       -0.14151941 -0.0463409 -0.09390355 0.12706931
000010 03 5c 3c bd a5 2d 7b bd 1d aa 0d be ed 4f 83 bc
       -0.045986187 -0.061322827 -0.13834424 -0.016029323
000020 03 91 d1 3b b2 2c 1b bd 2c 7e 80 3d 65 a0 5f 3c
       0.0063954606 -0.03788442 0.062740654 0.013649081
000030 27 66 54 3d d0 0f 19 3b e7 00 0f 3c eb 30 f4 3d
       0.051855233 0.0023355372 0.0087282425 0.11923393
000040 9a 27 3c 3d 5f b4 ae 3d 8b 89 cd 3c 83 5f 9b bd
       0.045936204 0.08530497 0.02509 -0.07586577
000050 d6 f9 7e bd 7a 12 ae 3c c5 af 60 bd a2 f9 ad 3c
       -0.06224998 0.021249045 -0.054855127 0.021237198
000060 23 95 bb 3d 53 f4 07 3e 09 2d b6 3c 39 ce 03 be
       0.09159305 0.13276796 0.022238271 -0.12871636
000070 dc e5 c2 bd 85 bd 0c 3e e4 a2 9a bd 68 20 00 3d
       -0.095164984 0.13744171 -0.075506 0.031280905
000080 ab ba e1 bd d0 9b 04 3e 68 cc 06 be 14 54 db bd
       -0.11021932 0.12950063 -0.13163912 -0.10709396
000090 eb 04 f3 bd dc 8c 76 3c b3 bc 88 bc 43 74 2f bd
       -0.118661724 0.015048232 -0.016691541 -0.042835485
0000a0 40 ea 9e 3c b0 2a b3 bd 21 85 7e 3d a7 f0 0e 3e
       0.019398808 -0.08748376 0.06213868 0.13958989
0000b0 0c 6a c4 bb c0 7e 11 3e 0b 25 5b 3b 1e 28 18 3e
       -0.005994087 0.14208508 0.0033438827 0.14859053
0000c0 c7 66 09 be 27 00 93 3d 29 2d 87 bd 8b 03 a9 3d
       -0.13418113 0.071777634 -0.066004105 0.08252629
0000d0 c8 1b 4f 3d 4c c7 a3 bc 7f fd 8e bc 23 cc f4 bd
       0.050563604 -0.019992493 -0.01745486 -0.119529985
0000e0 fa f2 b4 3d 00 24 b7 3d f4 20 1c 3c 49 37 0f be
       0.088354066 0.08942413 0.009529341 -0.13985933
0000f0 cf 7d e3 3d aa 3e 62 3d e7 85 b1 bd 29 30 26 3e
       0.111079805 0.055235542 -0.08668118 0.16229309
000100 af 14 06 3e a4 0e 72 bd 1a ce d9 3d 66 e0 b6 3b
       0.13093828 -0.059095994 0.10635014 0.0055809496
000110 3a 33 52 3d f7 24 d3 bd 64 63 d5 bd e9 c5 9d 3d
       0.051318385 -0.10309785 -0.10419348 0.07703764
000120 50 64 08 3e f6 82 f1 bd 04 74 f0 bd 6d 62 14 be
       0.13319516 -0.11792557 -0.11740878 -0.14490671
000130 30 8f b9 bd 8c 3f 97 3d 36 41 09 be 6f 3b 06 3e
       -0.09060514 0.073851675 -0.13403782 0.1310861
000140 6d 73 1d 3e 88 38 0e bd f2 67 7e 3d 31 92 8f 3d
       0.15376063 -0.03472188 0.06211085 0.07010306
000150 0e 5d d4 3d 9a a7 1a 3e 54 03 db 3d f4 17 aa 3d
       0.10369311 0.15102997 0.10693994 0.0830535
000160 53 9d 0f be 27 fc 34 3d e0 a6 64 3c 8c f9 87 3c
       -0.14024858 0.044185784 0.013955802 0.016598485
000170 10 37 ed 3b 33 9f 1c 3e b6 84 12 3c ba df 9d 3c
       0.00723923 0.15295105 0.008942774 0.01927172
000180 ed af a6 bd a2 f6 ca 3d 21 60 a3 3b 24 70 85 bd
       -0.08139024 0.09910323 0.0049858247 -0.0651553
000190 b4 80 3b 3b d1 3c 02 bd c5 e2 8c bd 76 9d e7 3d
       0.0028610649 -0.03179628 -0.0687919 0.1130933
0001a0 ff 0c ea bc 57 10 14 be 55 cc b9 bd 9a 0f 94 bb
       -0.02857065 -0.14459358 -0.09072176 -0.0045184614
0001b0 0c cc 0c 3e f9 e2 95 bd 55 3a ca 3d 7b 70 c0 3d
       0.13749713 -0.07318682 0.09874407 0.09396454
0001c0 d3 1b 5d 3d 71 d4 b8 3c 50 5a 17 bd 7d 70 46 3d
       0.053981613 0.022562237 -0.036951363 0.04844712
0001d0 a7 d6 0e be 0a a0 cc 3d 48 09 18 bc c0 4a 19 3d
       -0.13949071 0.099914625 -0.009279557 0.037424803
0001e0 b6 b0 a3 3c b4 03 88 bd 26 f3 d1 bd 44 ff 05 3e
       0.019981723 -0.06641331 -0.10251455 0.13085657
0001f0 2f 53 83 3d c3 91 cd 3d e6 c3 87 3d ab 6b 3d bd
       0.064123504 0.100375675 0.066291615 -0.04624526
000200 00 05 6a 3d d5 06 07 3e 10 41 10 be 8e 09 91 bc
       0.057133675 0.131862 -0.1408732 -0.017704751
000210 a9 70 d9 bd c1 27 8f 3d 4e 18 01 be 7a 60 05 3e
       -0.10617191 0.06990004 -0.12606928 0.13025084
000220 2e 46 dc bd b6 26 cc bd 83 81 19 be e1 72 d1 bb
       -0.10755573 -0.09968321 -0.14990811 -0.0063918685
000230 c9 e5 f7 bd a4 28 1f 3d af 4c 07 3d 8f 28 9b bd
       -0.12104375 0.038857117 0.033032116 -0.07576095
000240 bf f7 86 bc 17 44 a0 bd 33 72 1c bd 6f 68 22 3d
       -0.016475556 -0.07825487 -0.038194846 0.039650377
000250 4e ff 0f 3e 7b 16 00 be b9 2d bc 3b 9a 98 16 bc
       0.14062235 -0.12508576 0.0057427553 -0.0091916565
000260 4b 79 90 bc e9 6c 00 3b 6d d3 a7 bd c1 71 2f bd
       -0.017635962 0.0019596166 -0.08194623 -0.042833094
000270 8e c7 cc bc 15 a1 bb bc 6a f8 df bd b5 2d 8d bd
       -0.024997499 -0.022903958 -0.10936053 -0.068934835
000280 87 e4 84 3d f4 82 83 3c 19 dd 14 be b3 ab 01 bd
       0.06488901 0.016053654 -0.14537467 -0.031657886
000290 5e c2 e1 3d e1 8e d7 3c 47 81 8f bc 9d e7 b9 3d
       0.11023401 0.026313247 -0.017517699 0.0907738
0002a0 cc ad cd 3c a0 5b 02 3e a9 12 06 3d 17 1d 16 3d
       0.025107287 0.12730265 0.03273264 0.036648836
0002b0 43 1b a6 bd de 7d c3 bd 7d f8 8e 3d eb aa 9e 3d
       -0.081106685 -0.09545492 0.06980989 0.07747444
0002c0 ae c3 1a bd ed bd 93 bd 50 8b 0c be 12 eb 72 3d
       -0.03778427 -0.0721396 -0.13725019 0.05930621
0002d0 f0 63 83 3d 81 4c 9c bd 5c 90 5e bd e0 7c 11 be
       0.06415546 -0.076317795 -0.05433689 -0.14207792
0002e0 60 23 7c bd f0 71 4e bc ff c0 47 bd 01 3e 9c 3d
       -0.061557174 -0.012600407 -0.04876804 0.07629014
0002f0 ea c0 11 be e2 c1 1d be 96 12 16 3e c0 dd 7b bc
       -0.14233747 -0.15405992 0.14655527 -0.015372694
000300 6a 89 06 bd 7f 13 00 3e b5 a4 0d 3e db 81 0f 3e
       -0.032845892 0.12507437 0.13832362 0.1401438
000310 28 0c 63 bd 35 b3 29 bd c5 22 2b bd 99 b5 18 be
       -0.055431515 -0.04143067 -0.041781206 -0.14913024
000320 7c db fc 3b e9 97 f5 bd 51 71 a8 3d a6 94 8d 3d
       0.0077165943 -0.11991865 0.082247384 0.06913118
000330 f9 64 1d 3d 5c 85 36 bd 65 c1 b5 bc b3 a5 39 3d
       0.038426373 -0.044560775 -0.022186944 0.04532404
000340 aa 76 11 3d d3 70 41 bb 93 7c e6 bd b3 55 59 bc
       0.035513557 -0.0029516711 -0.112542294 -0.013265061
000350 e0 b7 a2 3c 4f 0d 95 bd 8b 6a b2 bd 4b 55 0a be
       0.019863069 -0.07277929 -0.08711728 -0.13509099
000360 8e df 00 3e fc 56 17 be 37 6b 52 bd 91 7f c9 3d
       0.1258528 -0.14779276 -0.05137178 0.098387845
000370 5d 00 f9 3d 7a 06 3f bd c9 f2 0b be bb fe e5 bd
       0.121582724 -0.046637036 -0.13666834 -0.112302266
000380 fc df 11 be 3a de 63 3d 4a 82 21 bd 88 0d 05 be
       -0.142456 0.055631854 -0.039430894 -0.12993443
000390 c9 0d 91 3d f9 3e e9 3d fd 47 45 3d 5f 30 30 bb
       0.070827074 0.11388964 0.048164356 -0.00268843
0003a0 56 5c 0b be a5 b7 89 3d 9f de 0b 3e 32 2e 81 bd
       -0.13609442 0.067244805 0.13659142 -0.06307639
0003b0 5a a5 d0 bd a9 ae 09 be b3 80 d9 bc 75 c1 07 3e
       -0.10187788 -0.13445534 -0.026550626 0.13257392
0003c0 4f f8 3d bd 84 93 b6 bd 0d 97 07 be f7 3f 2a bd
       -0.046379384 -0.08914855 -0.13241215 -0.041564908
0003d0 bc 02 da bd 13 54 70 bc 47 28 5e 3d 39 73 95 bd
       -0.10645053 -0.014668482 0.05423763 -0.072973676
0003e0 8a a8 b9 bd 28 0e 19 3e 3a 24 40 bd f4 4a 51 3d
       -0.090653494 0.14946806 -0.04690955 0.05109687
0003f0 d7 b7 c4 3d 85 ff 09 be 3b e0 a9 bc 01 8d 0a 3e
       0.09605377 -0.13476379 -0.020736804 0.13530351

model/dense_1/MatMul f4 [10, 128]
000000 f8 f5 41 3d 09 bc 4a bd 68 77 1e 3e c7 5f 0f be
       0.047353715 -0.04949573 0.15475237 -0.1400138
000010 bc 60 c0 3d 68 27 46 be 37 65 40 ba ef cc a7 3d
       0.093934506 -0.1935097 -0.0007339301 0.08193385
000020 a9 af 18 be f0 61 48 bd 92 31 bc bd 31 53 89 bc
       -0.14910759 -0.048921525 -0.09189142 -0.016763302
000030 52 4f 17 3e 71 c0 35 3e 18 8c 46 be 25 7d d6 bd
       0.14776352 0.17749192 -0.19389379 -0.10473088
000040 9a b0 c9 3d b8 09 bb bd 21 8e e9 bd 29 63 2c bc
       0.09848137 -0.09132713 -0.11404062 -0.0105216885
000050 63 6c d3 3d bf 0e d2 bd 93 c7 54 3e c3 2b 28 3e
       0.103234075 -0.10256719 0.20779257 0.16422944
000060 5b db 37 3e 52 8d 45 be 8f aa 4d 3a a5 94 b4 3c
       0.17954771 -0.1929219 0.00078455446 0.022043535
000070 b9 a2 39 be 34 f9 04 be 70 d8 f5 3c 01 ab 88 bd
       -0.1812848 -0.12985688 0.030010432 -0.066732414
000080 77 c0 72 bd a7 63 29 be 89 29 0e 3d 83 ff 51 be
       -0.05926558 -0.1654192 0.03470758 -0.20507626
000090 07 a7 c3 bc 80 3d 59 ba 1c 2b 13 bd 05 cc 58 3c
       -0.023883356 -0.0008287057 -0.035929784 0.013232236
0000a0 9b 4f 56 be 9d 39 2c bd 53 54 4d 3e 00 3b 3c 3e
       -0.20928805 -0.04204713 0.20051698 0.18381882
0000b0 71 24 be bd 32 0e 08 3d d2 11 97 3b 38 61 14 3e
       -0.092842944 0.033216663 0.0046102786 0.14490211
0000c0 60 2d a1 bd eb 20 15 be 03 da 92 3d 5a a9 f1 3c
       -0.07869983 -0.14563338 0.07170489 0.029499698
0000d0 3d 67 54 3e 68 8c 08 3e 99 34 4c 3e 9c e5 cb 3d
       0.20742507 0.1333481 0.1994194 0.09955904
0000e0 03 78 0f 3e 2d 04 e7 3d c9 b1 7f bd 02 f6 04 bd
       0.14010625 0.11280093 -0.06242541 -0.032461174
0000f0 aa 1c 1b be 41 14 ba 3d f2 c5 ec 3d 68 20 23 be
       -0.15147653 0.090858944 0.115611926 -0.15930331
000100 d0 2c a4 3d 03 22 24 3e d1 c6 37 be b7 66 d3 bd
       0.0801636 0.160286 -0.17946936 -0.10322326
000110 50 e0 30 3e 61 86 2f be 10 98 63 3d 01 9c aa bd
       0.17273068 -0.17141105 0.05556494 -0.08330537
000120 6d fe bd 3c 7e 58 cf 3d 4a 72 a2 3d 10 5e c1 3d
       0.023192609 0.101243004 0.07931955 0.09441769
000130 69 78 43 be fd 26 4f 3e f7 ca 08 be 58 bf 09 be
       -0.19088902 0.20229717 -0.13358675 -0.13451898
000140 7f ff 51 3e ff 4c 0d 3e b2 b7 8b 3c ad d8 dc bd
       0.2050762 0.13798903 0.017055366 -0.10783515
000150 44 70 09 be 57 d6 8a 3d 25 0f b5 3d 28 0a 84 bc
       -0.13421732 0.06779163 0.08840779 -0.016118124
000160 9f f8 e9 bd a1 b9 48 3e ba c8 94 3d be c6 21 be
       -0.11424374 0.19602062 0.07264848 -0.1579847
000170 90 77 71 3d 81 9b 90 bc 1c e5 4d be d0 31 28 3d
       0.058951914 -0.017652275 -0.2010693 0.04106313
000180 99 ea 4c bc c8 70 62 3c fb 7a 36 3e c5 da 43 ba
       -0.012507104 0.013820834 0.17820351 -0.0007471259
000190 74 07 95 3a 89 d2 04 be 4e 01 e9 bc 8c b1 0a be
       0.0011370019 -0.12970938 -0.028443005 -0.13544291
0001a0 04 d9 05 be 2a c7 f5 bc 0e 0a c2 bd 00 40 4b 39
       -0.13071066 -0.030002195 -0.09474574 0.0001938343
0001b0 92 91 ea 3c c9 ca 08 be 68 c9 71 3c 76 b7 bb 3d
       0.028633866 -0.13358606 0.014757492 0.09165852
0001c0 5d 89 42 3e 06 83 0d bd 17 4a a6 3d 01 ac 90 bb
       0.18997712 -0.03454878 0.081196 -0.0044150357
0001d0 a4 1c 85 bc 1c c3 3d 3e c9 74 f7 bc 1b e0 05 be
       -0.016249008 0.1853146 -0.030207055 -0.1307377
0001e0 50 e6 02 3d 9d f9 e2 bd 31 c3 59 bd a7 50 57 bc
       0.031957924 -0.11082766 -0.053164665 -0.013141788
0001f0 9e 1f 1a be 7f d0 fa bd 43 11 2b 3e 4c 3a 13 be
       -0.15051123 -0.12246799 0.16705804 -0.14377707
000200 d3 b2 5c 3d d8 74 21 3e 34 7a ea bd 2a e5 83 3c
       0.053881478 0.15767229 -0.1144909 0.016100485
000210 c2 f9 2e 3e 3b 2f 95 bd da 57 32 3e ca 6c 0a 3e
       0.17087463 -0.07284399 0.17416325 0.13518062
000220 d7 c8 91 3d b8 3c ab 3c d8 f9 99 3d 32 6b 02 3e
       0.07118385 0.020902976 0.07518357 0.12736204
000230 57 4a 38 3e 5b 7d 1b bd 2a 1a 0f 3e f8 e8 1c 3e
       0.17997108 -0.037961345 0.13974825 0.15323246
000240 e3 1e 0f be 1e 76 0f be 9c 8f 3a 3e 8f a9 3d be
       -0.13976626 -0.14009902 0.18218845 -0.18521713
000250 bf eb 78 bd bc 55 37 3d d2 b5 47 3e c2 36 4c be
       -0.0607717 0.044759497 0.19502953 -0.19942763
000260 67 26 1e be d9 d6 3a 3e cc b9 13 be d3 e0 38 3e
       -0.15444337 0.1824602 -0.14426345 0.18054514
000270 1b 6a 4d bd 0f ca 41 3e 21 e1 7a 3d 0c 7b a5 3c
       -0.05015002 0.18924735 0.061249856 0.020200275
000280 9a 77 ad bd 29 fd e0 bd 99 a6 e4 3d ff 91 24 3e
       -0.08470078 -0.109857865 0.111645885 0.16071318
000290 af b9 26 3c 1d 87 15 be d7 c2 cc bd 7a 4b 24 bc
       0.010176106 -0.14602323 -0.099981 -0.010027761
0002a0 7f 18 b3 3d 0f 90 93 bb 13 04 ed 3d 66 a5 f4 3d
       0.08744907 -0.004503257 0.11573043 0.1194561
0002b0 40 60 dd 3d 1f d6 48 bc f3 d1 28 be b0 3a 59 be
       0.10809374 -0.012258082 -0.1648634 -0.21213794
0002c0 c9 4a 06 3e 64 94 0d 3e d0 c4 02 3e 99 b3 c8 3d
       0.13114466 0.13826138 0.1277039 0.097998805
0002d0 00 ba b4 bc cf e5 43 3e 48 4b 9b bd 13 a4 28 3d
       -0.022061348 0.19130634 -0.07582718 0.0411721
0002e0 58 0b 00 bd 89 d6 38 3d f5 7a 42 bc 1f b1 3c 3e
       -0.03126082 0.04512647 -0.011870136 0.18426941
0002f0 33 30 17 3e 3a a1 2a 3e 88 69 53 bd 21 f2 0f 3e
       0.1476448 0.16663066 -0.051614314 0.14057209
000300 82 db 0d 3d de 7c 4e 3d 0d 6a cc 3c cf 44 2e 3e
       0.034633167 0.05041205 0.024952913 0.17018436
000310 66 25 1d 3e 88 33 0d be 55 cd 2b be 04 9e ff 3b
       0.15346298 -0.13789189 -0.16777547 0.0078008194
000320 f7 95 e5 3d 8a 8e ea 3d 57 60 59 3d c1 1b 25 3e
       0.11210244 0.114529684 0.053070392 0.16123869
000330 ab ac 1b be 42 f0 47 3e 12 50 8b 3d 89 ac 17 be
       -0.15202586 0.19525245 0.068023816 -0.1481191
000340 68 1f 6f bd 56 bd 39 3e 27 43 a7 bd cd 25 f4 bd
       -0.05837956 0.18138632 -0.08167105 -0.119212724
000350 40 ab 57 bd 09 b2 91 bd af 7f 84 bc c8 4a 72 bd
       -0.05265355 -0.07114036 -0.016174166 -0.05915335
000360 f1 94 07 3e 1c 2f 82 3c 89 20 20 3e 64 bb dc bd
       0.1324041 0.015891604 0.15637411 -0.107779294
000370 52 92 12 3e 27 5d c1 3b 67 12 31 3e 3c 1a 56 be
       0.1431363 0.005900997 0.17292176 -0.20908445
000380 39 a5 78 bd 6b ac 36 be e0 86 18 3e e3 bb fb bc
       -0.060704444 -0.1783921 0.148952 -0.03072924
000390 89 fa a7 3c f5 d7 29 be d4 f1 75 bd de d8 6b 3c
       0.020505207 -0.16586287 -0.06004508 0.014394967
0003a0 88 11 c1 3d 0b b6 3b 3e 62 e1 10 be b8 db 44 be
       0.09427172 0.18331163 -0.14148477 -0.19224441
0003b0 82 e5 43 be cf 66 b0 bc 9a 44 54 3e 2b 72 da bd
       -0.19130519 -0.021533398 0.20729294 -0.10666307
0003c0 5c fa 4e bc 44 d8 32 3e de 18 15 bd 90 12 0d be
       -0.0126329325 0.17465311 -0.03640067 -0.13776612
0003d0 02 11 08 3e 4c fc e3 3d a7 6e 01 be 60 ef 37 bc
       0.13287738 0.11132106 -0.12639867 -0.011226505
0003e0 02 ab 33 be 37 83 20 be 08 f2 2a 3e c2 a9 fb bd
       -0.17545703 -0.15675054 0.1669389 -0.12288238
0003f0 25 62 a8 bc df e4 8c 3d b4 d4 fa bd 93 fd 9b bd
       -0.020554611 0.06879591 -0.12247601 -0.07616725
